model.pth (torch, 13044 bytes, 5 tensors)

fc.0.weight f4 [64, 8]
0	0x3f235c52	0.63812745
1	0x3eb04ff4	0.34436
2	0xbe3a2607	-0.18178569
3	0x3e189483	0.14900403
4	0xbe31c655	-0.17360814
5	0x3d4395aa	0.047750153
6	0xbc981698	-0.018565461
7	0xbd8dd370	-0.06925094
8	0xad9fa17b	-1.8147919e-11
9	0x041a154e	1.8112396e-36
10	0x8af0d0d8	-2.3189718e-32
11	0x0c37c364	1.4156605e-31
12	0x17a839e9	1.0871364e-24
13	0x04e4a9e8	5.3758577e-36
14	0x9dc236fa	-5.1408217e-21
15	0x03b1a4e1	1.0440979e-36
16	0xbe43205e	-0.19055316
17	0x3cd19986	0.025585901
18	0xbbe552a6	-0.006998378
19	0xbe086902	-0.13321307
20	0x3e1d5067	0.15362702
21	0x3d0899e3	0.033349883
22	0x3e2f6a08	0.17130291
23	0x3df28d3f	0.11843347
24	0x3f3647ea	0.7120348
25	0x3f3ea431	0.74469286
26	0x3de98ac6	0.11403422
27	0xbeb3409d	-0.35010234
28	0xbd874f23	-0.06606891
29	0xbd7bc6c8	-0.06146887
30	0x3d545c59	0.051845882
31	0x3efdfbf9	0.49606302
32	0x3f158dd2	0.58419526
33	0x3f56bce3	0.8388197
34	0x3e098aaf	0.1343181
35	0xbe2f81c9	-0.17139353
36	0x3dee8e24	0.11648205
37	0x3e3246e9	0.17409863
38	0x3d84791a	0.06468411
39	0x3ee9de7e	0.4567756
40	0x3f3df8cc	0.7420776
41	0x3f6282f6	0.8848108
42	0x3efa743b	0.48916802
43	0x3da2c516	0.079477474
44	0xbee052bf	-0.4381313
45	0x3bd9de71	0.0066488315
46	0xbd543832	-0.051811405
47	0x3ecac1ed	0.3960108
48	0x3f306d5e	0.6891688
49	0x3f53b2e2	0.8269483
50	0xbd83665e	-0.06416009
51	0x3dcfcef9	0.10146899
52	0x3e99c0c3	0.30029878
53	0xbd4ff405	-0.050769825
54	0xbe43b5dc	-0.19112343
55	0x3e938475	0.28811994
56	0x3ec6e51f	0.3884668
57	0x3e11450e	0.14186499
58	0xbd9f5c85	-0.077813186
59	0xbd23e3be	-0.040012114
60	0x3e2dd71e	0.16976592
61	0xbe19df3e	-0.15026566
62	0xbe2fc2e0	-0.17164183
63	0x3ea072b9	0.31337526
64	0xbf2dd62d	-0.6790493
65	0x3e63ffd3	0.22265558
66	0xbea856e2	-0.32878786
67	0x3f2a89a5	0.6661628
68	0xc01d3773	-2.4565094
69	0x3f41ecaa	0.75751746
70	0x3bb1647a	0.005413589
71	0x3f8f7d30	1.1210079
72	0x3f2e1963	0.6800749
73	0x3ede4b44	0.43416798
74	0x3f1f37e4	0.6219466
75	0xbf9f908b	-1.2465986
76	0x3c848b14	0.016179599
77	0x3ea68157	0.32520553
78	0x3f10c688	0.56552935
79	0x3dee2dad	0.11629806
80	0x3ee539d2	0.44770676
81	0x3e9f9d24	0.31174576
82	0x3e805834	0.25067294
83	0xbeb5a931	-0.35480645
84	0x3ea552d4	0.32289755
85	0x3e40f705	0.1884423
86	0x3dfdde70	0.12395942
87	0x3efcbfc2	0.4936505
88	0x3f2dc135	0.67872936
89	0x3ed8714d	0.42273942
90	0xbde483ec	-0.111579746
91	0x3eb53620	0.35392857
92	0xbe48c6fb	-0.19607155
93	0x3e677248	0.22602189
94	0xbdc4778b	-0.095931135
95	0x3efa1431	0.4884353
96	0x3f2782c4	0.6543391
97	0x3f253d70	0.6454687
98	0x3ebf1cf2	0.3732677
99	0xbe666af6	-0.2250174
100	0x3e82ea4c	0.2556938
101	0xbdec0f7b	-0.1152639
102	0xbe5eab15	-0.2174495
103	0x3f1d61ba	0.61477244
104	0x3e785144	0.2424975
105	0x3e342832	0.17593458
106	0xbd0fb5fe	-0.03508567
107	0x3e8222af	0.25417086
108	0xbd7dbaad	-0.061945606
109	0x3db81799	0.08988876
110	0x3d79ed74	0.06101747
111	0x3f16eff9	0.5895992
112	0x3f4b27d5	0.79357654
113	0x3f37ee04	0.7184756
114	0x3e5b228a	0.21399894
115	0xbe8c33a5	-0.27383152
116	0x3ea97c45	0.33102623
117	0xbdbba73d	-0.091627575
118	0x3dea4557	0.11439007
119	0x3ecdb8d2	0.4018007
120	0x3edb1757	0.42791244
121	0x3d86fa45	0.06590704
122	0xbd0068cb	-0.03134994
123	0xbdfdd1a6	-0.12393503
124	0x3eafc73c	0.3433169
125	0x3e9f6fad	0.3113989
126	0xbe0495e9	-0.12947811
127	0x3e864567	0.26224825
128	0x3f2e8071	0.68164736
129	0x3ecc8c1c	0.39950645
130	0x3ef70767	0.48247835
131	0xbe2747fe	-0.16336057
132	0x3dfab00d	0.1224061
133	0x3e9df60a	0.30851775
134	0x3e7fc696	0.24978098
135	0x3e297e7e	0.16552159
136	0xbd29d599	-0.04146347
137	0xbdefac39	-0.11702771
138	0x3ed74f47	0.4205267
139	0x3e553043	0.20819192
140	0x3e26342d	0.16230841
141	0x3ea6c5ea	0.3257287
142	0x3e8cfff7	0.27539036
143	0x3e2f34fd	0.17110057
144	0x3f38a3a0	0.7212467
145	0x3f097b1b	0.5370347
146	0xbcdfdd1a	-0.02732711
147	0x3ee5f971	0.4491687
148	0x3ecfc516	0.40580052
149	0x3dd4ee37	0.103969984
150	0x3c9819d7	0.018567009
151	0x3dd64058	0.10461491
152	0x3cdc256b	0.026873311
153	0x3bd2e10e	0.00643552
154	0x3e881bb9	0.2658365
155	0x3ec65a00	0.3874054
156	0x3e58b8ea	0.21164289
157	0x3ec1c884	0.37848294
158	0x3e09d971	0.13461854
159	0x3ef3890e	0.47565502
160	0x3e9dfc89	0.30856732
161	0x3ecd3f26	0.4008724
162	0x3ce1daea	0.027570207
163	0x3ebde715	0.37090364
164	0xbe5583ee	-0.20851108
165	0x3ebb03f9	0.36526468
166	0xbba8aa46	-0.0051472513
167	0x3f0543ed	0.5205677
168	0x3f648d28	0.8927789
169	0x3f372adf	0.7154979
170	0x3ee646cf	0.44975898
171	0xbe53aeee	-0.20672199
172	0x3e8b0275	0.27150312
173	0xbdaa34c6	-0.08310847
174	0x3e8fa187	0.28052923
175	0x3e849d27	0.25901148
176	0x3f270f13	0.65257376
177	0x3f417adb	0.7557809
178	0x3d5fb61c	0.054617032
179	0x3e0b797c	0.13620561
180	0xbe6d0b32	-0.23148802
181	0x3c00fba0	0.007872492
182	0x3cb3fa60	0.021969974
183	0x3b02c812	0.0019955677
184	0x3f4b6910	0.7945719
185	0x3f53e4f1	0.8277121
186	0x3d1a079f	0.037604924
187	0x3eebf3e6	0.46084517
188	0x3e06225a	0.13099042
189	0x3eda4152	0.4262796
190	0xbe49ac90	-0.19694734
191	0x3d486ba6	0.048930787
192	0x3e8c442d	0.27395764
193	0x3f5a47ba	0.85265696
194	0x3c86d1a4	0.016457386
195	0xbea2449a	-0.31692964
196	0x3de3aa4d	0.11116467
197	0x3ea5f437	0.32412884
198	0x3ead22ab	0.33815512
199	0x3ec9824d	0.39357224
200	0x3f41cf73	0.7570717
201	0x3f25172e	0.64488494
202	0x3e21b011	0.1578982
203	0x3a0b1608	0.0005305712
204	0x3e8e6fbb	0.2781962
205	0x3e86e00a	0.26342803
206	0xbe3ad20e	-0.18244192
207	0x3cbb4c54	0.022863545
208	0x3f092413	0.5357067
209	0x3f5414da	0.82844317
210	0x3e9e1900	0.30878448
211	0xbe1a992e	-0.15097496
212	0xbe7f6005	-0.24938972
213	0xbe09fced	-0.1347539
214	0xbcff7959	-0.031185793
215	0x3efa4ef6	0.48888367
216	0x3d09ef70	0.03367561
217	0x3e4884ef	0.1958196
218	0xbe2cc7b8	-0.16873062
219	0xbe69ef33	-0.22845154
220	0x3e8cee6c	0.2752565
221	0xbe066f50	-0.131284
222	0x3d3d5505	0.04622366
223	0x3e456846	0.19278058
224	0x3ded087d	0.11573885
225	0xbbe929de	-0.0071155867
226	0x3e9641c4	0.2934705
227	0xbdca2dd6	-0.09872024
228	0xbe844eaf	-0.2584128
229	0xbe27de53	-0.16393404
230	0x3e2be8b5	0.1678799
231	0x3e286019	0.16442908
232	0x3ed96602	0.42460638
233	0x3ed88795	0.4229094
234	0x3f3f5e3a	0.74753153
235	0xbf9b1548	-1.211587
236	0x3bd99e26	0.006641167
237	0x3f11bb8a	0.56926787
238	0x3ee8e988	0.4549067
239	0x3ded24c4	0.11579278
240	0x3e2efa2d	0.17087622
241	0x3f67f0b6	0.9060167
242	0xbe0577dd	-0.13034005
243	0xbe58167e	-0.2110233
244	0xbe02ff2a	-0.1279265
245	0x3e4c5fda	0.1995844
246	0x3cef2255	0.029191175
247	0x3f278f7e	0.65453327
248	0x3e8d2838	0.27569747
249	0xbcf8c542	-0.030367497
250	0x3e879c9b	0.26486668
251	0x3e817769	0.25286415
252	0x3dddb6ec	0.10825905
253	0xbe98e597	-0.29862663
254	0x3c048453	0.008088189
255	0x3f06a60e	0.5259713

fc.0.bias f4 [64]
0	0x3e24153d	0.16023727
1	0xaec5a96f	-8.98862e-11
2	0xbe8fc900	-0.28083038
3	0x3ea2735a	0.3172863
4	0xbde48883	-0.1115885
5	0xbd226226	-0.039644383
6	0x3eacf509	0.33780697
7	0x3de5041e	0.11182426
8	0x3e3ac214	0.18238097
9	0xbe670159	-0.22559108
10	0x3e407926	0.18796214
11	0x3d8f8fde	0.07009862
12	0x3e8fb591	0.28068212
13	0x3e520959	0.20511378
14	0x3da00dfe	0.07815169
15	0x3bb8b0c2	0.0056363055
16	0x3e1c9238	0.15290153
17	0xbe4f764f	-0.20259975
18	0x3ee48815	0.44635072
19	0x3db7c4c3	0.08973076
20	0x3bcd367e	0.0062625995
21	0xbd9bf779	-0.07615561
22	0x3e660121	0.22461368
23	0x3e51a3c0	0.20472622
24	0x3d25b9cc	0.040460393
25	0xbe1fdfab	-0.15612666
26	0x3e0ec313	0.13941602
27	0x3e019600	0.12654877
28	0x3e3e5cdb	0.18590109
29	0xbe7f2497	-0.24916302
30	0x3e5fd6fd	0.21859355
31	0xbd10e500	-0.03537464
32	0xbc827162	-0.015923206
33	0xbddaebd3	-0.10689511
34	0x3dcd5f4b	0.10027941
35	0x3e415c7d	0.18882938
36	0xbdacc04f	-0.084351175
37	0xbc8e0ef4	-0.017341115
38	0xbe3f32fc	-0.18671793
39	0x3ed64189	0.41846874
40	0x3e1bb653	0.1520627
41	0x3e29be7e	0.16576573
42	0x3ec118f2	0.37714344
43	0x3e48cef6	0.196102
44	0x3ec52d5e	0.38511175
45	0xbba05d7c	-0.0048939567
46	0xaf957e3e	-2.7192643e-10
47	0x3df2f4f8	0.1186313
48	0xbd4492dc	-0.04799162
49	0x3ee94104	0.45557415
50	0xbdcc0820	-0.09962487
51	0x3ef24650	0.4731927
52	0x3e9bb1bf	0.30409047
53	0x3ea4b49f	0.32169053
54	0x3ea249c8	0.31696916
55	0xbd969b03	-0.07353785
56	0xb64ba875	-3.0347412e-06
57	0x3d4cf6e2	0.050040133
58	0x3e929aab	0.28633627
59	0xbc89b8ba	-0.016811717
60	0x3ed2d0a3	0.41174802
61	0xbd8736fe	-0.06602286
62	0x3e134942	0.14383414
63	0xb9f86bef	-0.00047382663

fc.2.weight f4 [32, 64]
0	0xbd9be984	-0.07612899
1	0x02a643f6	2.4430515e-37
2	0x3c9ccd2f	0.019140808
3	0x3d4958ec	0.049157068
4	0xbd8adec9	-0.06780774
5	0x818f1ffa	-5.257579e-38
6	0x3ce1b65d	0.027552778
7	0xbbffc92f	-0.0078059654
8	0x02051844	9.778261e-38
9	0xb8f78a2a	-0.00011803613
10	0xbd8d1fbe	-0.0689082
11	0x3c9d2fc7	0.019187821
12	0xbe03b4ec	-0.12861985
13	0xbd5c8ef7	-0.05384728
14	0xbc5c509e	-0.013446955
15	0xbb8e1891	-0.0043364246
16	0xbe29d2b7	-0.16584288
17	0xbbdd2d66	-0.0067497967
18	0xbd9d4e65	-0.07680968
19	0xbd349753	-0.044089627
20	0x3b9881c7	0.0046541425
21	0xbc870e02	-0.016486172
22	0xbe2d5e4b	-0.16930501
23	0xbba2a6a4	-0.0049637128
24	0x3d453ee1	0.04815567
25	0xbd25d818	-0.040489286
26	0xbd511e9a	-0.051054575
27	0xbbf5702f	-0.00749018
28	0x818227ac	-4.7811384e-38
29	0x01197558	2.8185852e-38
30	0xbdc5c254	-0.09656206
31	0x80fcae28	-2.320502e-38
32	0xbb6bd509	-0.0035985133
33	0x8049b4fa	-6.768913e-39
34	0xbce3c40d	-0.027803445
35	0xbd663208	-0.056200057
36	0x820057d6	-9.429162e-38
37	0xbe0a60ed	-0.13513537
38	0xbdcff02c	-0.10153231
39	0xbe1a762e	-0.15084144
40	0x3d1596a4	0.036520615
41	0xbdc74c24	-0.097313195
42	0xba02b962	-0.00049867306
43	0xbe1fadd4	-0.15593654
44	0x3d3e17ea	0.046409525
45	0xbcba8b38	-0.022771463
46	0x820f2ce4	-1.0518864e-37
47	0xbd61ceb6	-0.055128776
48	0x8289645d	-2.0187946e-37
49	0x3d584f24	0.05280985
50	0xbdc78ec2	-0.09744026
51	0x82722279	-1.7789245e-37
52	0x3d5f74d4	0.054554775
53	0xbbe12d6e	-0.0068718707
54	0xbdc4bd91	-0.096064694
55	0x82626aac	-1.6634471e-37
56	0x8247a995	-1.4668879e-37
57	0xbdacb8e4	-0.084337026
58	0x02b041b0	2.5898578e-37
59	0x81a2c1c3	-5.9787436e-38
60	0xbe3b7973	-0.18308048
61	0xbd8118cb	-0.06303557
62	0xbd81a777	-0.063307695
63	0x815f21c4	-4.0982857e-38
64	0x3e2c37ca	0.16818157
65	0x031d1024	4.615668e-37
66	0x3cff8beb	0.031194648
67	0x3e4b6d90	0.19866014
68	0x3eb3b90f	0.35102126
69	0x3e975835	0.29559484
70	0x3e27c719	0.16384543
71	0x3d339ce7	0.043850806
72	0xbf9c37d9	-1.2204543
73	0x3f69b14f	0.91286176
74	0x3e30c427	0.17262326
75	0x3e8359ac	0.25654352
76	0x3e20cb5d	0.15702577
77	0x3e58f3b6	0.21186718
78	0x3ea9ff2f	0.33202502
79	0x3def72b3	0.11691799
80	0x3eb5ca89	0.35506085
81	0x3dac649c	0.08417627
82	0x3eaafeb7	0.33397457
83	0x3d3ac1c6	0.045594953
84	0x3dfcedf0	0.123500705
85	0x3e68473c	0.22683424
86	0x3eacd6d8	0.33757663
87	0x3ea53f9c	0.32275093
88	0x3e7066e1	0.23476745
89	0x3dc9b794	0.09849468
90	0x3e1bc1de	0.15210673
91	0x3dcf7de8	0.101314366
92	0x3dd8475d	0.105604865
93	0x3f4d1f91	0.8012629
94	0x3dddbb1d	0.10826705
95	0x3d6727e2	0.05643452
96	0x38660894	5.4844262e-05
97	0x3d882796	0.066481754
98	0x3cf02491	0.029314311
99	0x3e6e9188	0.23297703
100	0x3af2eb10	0.0018533189
101	0x3e990eba	0.29894048
102	0x3e377ea6	0.17919406
103	0x3ea3f45f	0.32022378
104	0x3d156bc5	0.03647973
105	0x3ea7bc53	0.32760867
106	0xbf890863	-1.0705684
107	0x3e1ce0d1	0.15320136
108	0x3eaafd37	0.33396313
109	0x3ea961c7	0.3308241
110	0x19393dba	9.5767414e-24
111	0x3e49f114	0.1972087
112	0x3e7b7962	0.24558023
113	0x3e8b62d8	0.2722385
114	0x3e15c7bb	0.14626972
115	0xbf15dff8	-0.58544874
116	0x3e837b07	0.256798
117	0x3e8b23c9	0.2717574
118	0x3eaa3f91	0.33251622
119	0xb8912d77	-6.922607e-05
120	0xb98ce429	-0.00026872873
121	0x3e695b02	0.22788623
122	0xc06c7fb9	-3.6952956
123	0xb9654293	-0.00021863943
124	0x3e314dd2	0.17314842
125	0x3fd37977	1.6521443
126	0x3e81514f	0.25257346
127	0x330dcfb0	3.301801e-08
128	0x3d6bab28	0.057536274
129	0x021f8ee2	1.172248e-37
130	0xbb2a8e81	-0.002602488
131	0xbe142817	-0.14468418
132	0xbd25e235	-0.04049893
133	0x39a89f5b	0.00032162186
134	0xbda64085	-0.08117775
135	0xbde6a01d	-0.11261008
136	0x8257d571	-1.585696e-37
137	0xb9fdae4b	-0.0004838578
138	0xbd0d42d1	-0.03448755
139	0x3c01cbae	0.007922096
140	0x3bd25411	0.006418713
141	0xbe188675	-0.14895041
142	0xbbce71e1	-0.0063001965
143	0xbbe29179	-0.0069143143
144	0x3cbad669	0.022807317
145	0xbcb283d1	-0.02179137
146	0xbda32981	-0.079669006
147	0xbdcf22d4	-0.10114065
148	0xbdf4689c	-0.11934015
149	0xbd41f264	-0.047350302
150	0x3ce48843	0.027897006
151	0xbe2b554c	-0.16731757
152	0xbd90ea56	-0.07075946
153	0xbc92f905	-0.017941007
154	0xbcb28052	-0.021789704
155	0xbd38c213	-0.04510696
156	0x3c98b73b	0.018642059
157	0x0073d1fc	1.063641e-38
158	0x3d1767f9	0.03696439
159	0xbc08f294	-0.008358616
160	0xbb22f6fd	-0.0024866455
161	0xb915730c	-0.00014252606
162	0xbdb9b34f	-0.090674035
163	0xbdcc97a5	-0.099898614
164	0x82c4f1c9	-2.893839e-37
165	0xbcc18304	-0.023622043
166	0xbdba54fc	-0.09098241
167	0xbd703505	-0.058644313
168	0x3b1158e2	0.0022178222
169	0xbd87764b	-0.066143595
170	0xbcf7527f	-0.030190704
171	0xbc65be9b	-0.014022495
172	0xbca3ee1a	-0.020010997
173	0xbe45ed33	-0.19328766
174	0x01c2a2bb	7.149785e-38
175	0xbd9a6cee	-0.07540308
176	0x3b746162	0.003728949
177	0xbd698991	-0.05701596
178	0x3ca3db53	0.020002043
179	0xbc2d1544	-0.010564152
180	0xbdfae212	-0.12250151
181	0xbd64432c	-0.055728123
182	0xbdc1751d	-0.09446166
183	0x820ac6b6	-1.0195666e-37
184	0xbbc50bc8	-0.0060133673
185	0xbe2f9b77	-0.17149149
186	0x01264c50	3.0544136e-38
187	0x80766780	-1.0873717e-38
188	0xbdc9fc3b	-0.09862562
189	0xbe14c633	-0.14528732
190	0x3cd48174	0.025940634
191	0x01c4fef0	7.2364846e-38
192	0x3da2274b	0.07917651
193	0x80d7bcb8	-1.9812331e-38
194	0x00ca89fc	1.860027e-38
195	0x3d9a725d	0.07541344
196	0x3ce7dc97	0.028303428
197	0x3e49ba7a	0.19700041
198	0x3e24e1bc	0.16101736
199	0xbdccfd73	-0.10009279
200	0xbf5e7072	-0.8689033
201	0x3f76996b	0.9632785
202	0xbc97e77a	-0.018542994
203	0x3e2c99e1	0.16855575
204	0x3d2a00aa	0.04150454
205	0x3e0dc940	0.13846302
206	0xbae2298a	-0.0017254811
207	0xbe04f1d2	-0.12982872
208	0x3db4a461	0.08820415
209	0x3d68937d	0.05678128
210	0x3e79d5e1	0.24397995
211	0x3e0aea8a	0.13566032
212	0x3e32b76c	0.17452782
213	0x3d3ed691	0.046591345
214	0x3e5d5bc9	0.21617045
215	0x3e86f1e7	0.26356432
216	0x3deb370a	0.11485107
217	0xbc27e858	-0.010248266
218	0x3dbc280f	0.09187328
219	0xbdb9d426	-0.09073667
220	0xbc936134	-0.017990686
221	0x3f842567	1.0323914
222	0x3e0a3635	0.13497241
223	0xbd89a9bb	-0.06721827
224	0x023da43c	1.393266e-37
225	0x3c4dc5d7	0.012559376
226	0x3d3f9975	0.046777207
227	0x3e85a60f	0.26103255
228	0x00f455bc	2.2438617e-38
229	0xbda46ce5	-0.080285825
230	0x3ddfd8c7	0.10930019
231	0x3e56240a	0.20912185
232	0xbcf0cfd0	-0.029395968
233	0x3d78bc66	0.060726546
234	0xc006543a	-2.0988908
235	0xbe1af990	-0.15134263
236	0x3e42a1ae	0.19006988
237	0x3e011713	0.12606458
238	0x021679e8	1.1055245e-37
239	0x3e694e48	0.22783768
240	0xbce04e92	-0.027381215
241	0x3e71ba62	0.23606256
242	0x3dfe7dd6	0.12426345
243	0xbf650f79	-0.89476734
244	0x3e8cfaeb	0.27535185
245	0x3c099a06	0.008398538
246	0x3e801392	0.2501493
247	0xae0e9729	-3.242132e-11
248	0x819489ac	-5.4564163e-38
249	0x3e429120	0.19000673
250	0xc08b3df4	-4.3513126
251	0xb0d644aa	-1.5590065e-09
252	0x3df1d649	0.1180845
253	0x401a003f	2.406265
254	0x3d650b6c	0.055919096
255	0x132adfaa	2.1567292e-27

fc.2.bias f4 [32]
0	0xbe15fad2	-0.14646462
1	0x3eb47209	0.35243252
2	0xbd7d3edd	-0.06182753
3	0x3ed927e9	0.42413262
4	0x3d5cda3d	0.053919066
5	0xbccd259f	-0.025042353
6	0x3e8054d7	0.25064728
7	0xbc9414dd	-0.018076355
8	0xbd915069	-0.07095415
9	0x3dde7064	0.108612806
10	0xbd831371	-0.064001925
11	0x3ec89c74	0.39181864
12	0x3ecf3ccc	0.40476072
13	0x3e4493a8	0.19196951
14	0x3ebd66e0	0.3699255
15	0xbdfab961	-0.122423895
16	0x3ee53fb7	0.44775173
17	0xbe1048eb	-0.14090316
18	0x3e6e4e5a	0.23272076
19	0xbd5a1438	-0.05324194
20	0xbd0a278c	-0.03372912
21	0x3cf2b941	0.029629352
22	0x3c983f7d	0.018584961
23	0xbe3395ed	-0.17537661
24	0x3e90a635	0.28251806
25	0x3eaa3245	0.33241478
26	0x3e77366b	0.24141853
27	0xbe1d3c9c	-0.15355152
28	0x3e9b11a4	0.30286896
29	0x3ebf13eb	0.37319884
30	0x3e3a0532	0.18166044
31	0xbdf9b025	-0.121918

fc.4.weight f4 [1, 32]
0	0xbd3b9ff3	-0.045806836
1	0x3ef1ddca	0.47239524
2	0xbd782547	-0.060582425
3	0x3f3af8b1	0.7303572
4	0x3f058631	0.52157885
5	0x3c36495d	0.01112589
6	0x3ef02c98	0.46909022
7	0x3d6d3ac4	0.05791737
8	0xbd8ebf50	-0.06970084
9	0x3f18e37c	0.59722114
10	0x84117b58	-1.7101305e-36
11	0x3eec2bb2	0.46127087
12	0x3f002f98	0.5007262
13	0x3f012c21	0.5045796
14	0x3effca8b	0.49959216
15	0x3bb49a20	0.005511537
16	0x3f346ba4	0.70476747
17	0xbc8bce4d	-0.017066145
18	0x3f00664e	0.50156105
19	0xbd0ff88a	-0.035149135
20	0x3be9cc8a	0.0071349787
21	0x3f21e785	0.63243896
22	0xbdb0d766	-0.08634834
23	0x3d2d55e5	0.042318244
24	0x3f1838e0	0.59461784
25	0x3f034def	0.5129079
26	0x3ee4ee6e	0.44713157
27	0xbba26728	-0.004956145
28	0x3efd8f1b	0.49523243
29	0x3f106e29	0.5641809
30	0x3ef4969d	0.4777116
31	0xbda4a8ca	-0.080400065
